scripts/data/expert_demo/policy_param.pt (torch_old, 174096 bytes, 8 tensors)

linear1.weight f4 [200, 6]
00000000: ccd3 23be 1f1a 193e cace ae3e a773 c43e
00000010: 2683 6a3e 126d 0d3f 2aa2 673e 9717 7d3e
00000020: 4230 a1be 0617 11bd c962 a8be ab1e dfbb
00000030: e641 c03e 107d 093e 8471 e5bd f0f6 be3e
00000040: c256 75be c0ac d8bd 1078 f73c 68e6 92be
00000050: 841a d2bd 5471 8b3e f004 cfbc c26d 56be
00000060: 4d26 74be fe4e 50be 1195 e53a c5a5 b03e
00000070: 4949 b2be d4db 0fbe a544 983d 9ebe d2be
00000080: 950a a63e d7b1 12be 5983 67bb 941f 3dbe
00000090: 9882 b5bd 8455 6dbe 305c d3bc 9038 b0bc
000000a0: 8084 d4bb e052 633e 067e 87be 9f1e 97be
000000b0: 8469 85bd e212 a53e e6b9 5c3d 2aa5 c4be
000000c0: 4d99 8ebe 00eb e5be 9595 6bbd 13f3 a53e
000000d0: dfa3 a23e 7fa4 173d e8d1 9b3e bcc9 a73e
000000e0: 35af c5be e4a6 a9bd 7c15 b0be a486 353e
000000f0: f560 eebd 6e33 09bf 575a be3e de0c 7d3d
00000100: 403f 6cbd 3e9f 43bd 2657 b03e 8088 dcbd
00000110: 905e 77bd c84c 2b3e e08e 99bd 27fc c6be
00000120: 9a51 1c3b 60b2 843e 9c18 193f c1f6 a03e
00000130: 3475 95bd 2b7e ab3e 0857 843c e4ee 3f3e
00000140: 3a37 1d3e c013 f3be 8cbe 5e3f 4391 943e
00000150: 7c8d bbbd 22ce 743f cca7 863e 8e79 74be
00000160: 79a5 b4be 5d4d f8be fa3a 2abe 4236 2d3e
00000170: 4d94 e83e 56e8 ad3e 4f40 313e 5119 c1bd
00000180: 0337 ef3d 2b7a c2be b025 de3e 0588 51bd
00000190: 428e f23e d23f d8be 8805 383e ec6f 833e
000001a0: 80c6 fa3c 083e c23d f874 e83d ebf6 7abe
000001b0: 5a65 403e 1ee0 963d 9460 d03e aa9c 91bd
000001c0: d224 c5be 1d01 e9bd 616f 5dbe 259b bebc
000001d0: 5185 e3bd 1760 a33e 0f7c d4bd 1569 81be
000001e0: abcd 483e f047 acbe 87f7 51be b8ae 0bbe
000001f0: 2652 babe 13d2 5dbe 26f2 b4be 186e 173d
00000200: 9420 343d d374 d6be 6d60 cfbd 3065 3b3d
00000210: 744d e9bd 14dc 26be 34db 0c3e 980a f6bd
00000220: 18c2 c63d 00d8 ef3d 3d3f 343d 66da b93e
00000230: e0cc 2ebc 5f0d 763e 8475 97be 3904 4bbe
00000240: 716b f43d 3f0a c0bd 236d db3c 7b13 adbc
00000250: 616a c6be 7489 72be 4422 ebbe 27d1 d7be
00000260: 3131 0bbf c085 5abf 0f3c 163f 44d4 c53e
00000270: ab70 e83e 1fc7 27bf df4e 743e 7493 313f
00000280: 6d8e eabd b160 1cbe 3362 9bbe adc8 babe
00000290: 151d da3e 45eb 57bd 7272 413e 44b9 87bd
000002a0: 4074 dfbc ec16 64be cb3a bcbe e6a3 4f3d
000002b0: 51be e5be d2c2 e6be b0e7 8f3e eb72 e43d
000002c0: 60dd afbd 322a b03e 8e46 86bd 0445 a73e
000002d0: 3c93 ac3d 4876 b0be c041 353d 34bc 273e
000002e0: d86a 84bd 5a03 873e d074 92be 40cc ae3d
000002f0: 1afa b83e 20ae 6abe 32e5 df3c 8b6c 003e
00000300: 50a5 a43e 8097 0fbc 901d 763d a849 bb3e
00000310: 4402 803e e068 bdbd a0f2 e7bd fb9c 2ebe
00000320: a4aa 753e ba79 b13e 4058 7cbc 1cbe 263e
00000330: 4b58 96be 5c53 183e e4d7 e5bd 6e71 a13e
00000340: 68c7 98be bcf2 adbd 09cf 90be 4a9f 8abe
00000350: 525e 643e d167 293f b5b5 1e3d 0b98 9dbd
00000360: 2157 043c 0ed9 43bf e2df 0d3f 9d2d d1bd
00000370: c878 fcbe c488 1dbe c41a b83e 4ec8 1cbe
00000380: 8abc 833e 7e77 cebe d016 44bd 7cd9 863e
00000390: c8cb 113e a879 033e a46a f4bd 925a 943e
000003a0: 76ee 963e bfd7 40be bdaa 28be 84e4 703e
000003b0: 56f8 08be 2422 ac3e 70ba 833e 0a07 60be
000003c0: ea0d 3dbe 7702 72be ec51 ee3e 5868 68be
000003d0: 9c81 fa3d 4dbd f1bd d002 d83d 68ca fcbd
000003e0: 47f5 4fbe 66cb b8be 67f4 28be 5038 573e
000003f0: 4c4b b93d 98ec 2e3e c4a4 663e 289a 003e
-0.15998763 0.1495137 0.34142143 0.38369486 0.22901592 0.55244553 0.22620454 0.2471603
-0.3148213 -0.035422347 -0.32887867 -0.006809076 0.37550277 0.13426614 -0.11203292 0.37297773
-0.23958877 -0.105798244 0.030208617 -0.2869141 -0.10258964 0.272349 -0.02527091 -0.20940307
-0.23842736 -0.20342633 0.0017515739 0.34501472 -0.34821537 -0.14048702 0.07434968 -0.41161054
0.32429948 -0.14325653 -0.0035326092 -0.18469077 -0.088627994 -0.23177153 -0.025800794 -0.021511346
-0.006485522 0.22199583 -0.26463336 -0.2951555 -0.06514266 0.3224097 0.053888224 -0.3840726
-0.27851334 -0.44905853 -0.0575157 0.32412013 0.3176565 0.03702211 0.30433583 0.327711
-0.38610235 -0.08283785 -0.3439139 0.17727143 -0.11639587 -0.535941 0.371783 0.06177985
-0.057677507 -0.047759287 0.3444149 -0.10768223 -0.060392916 0.16728508 -0.07497954 -0.38864252
0.002385235 0.2591734 0.59803176 0.31438258 -0.07297745 0.33494696 0.016154781 0.18743473
0.15353099 -0.47476006 0.870095 0.29017076 -0.091578454 0.95627034 0.26299894 -0.23874494
-0.35282496 -0.48496523 -0.1662406 0.16915229 0.45425645 0.3396632 0.17309688 -0.09428657
0.116804145 -0.37983832 0.43388128 -0.05115511 0.4737416 -0.4223619 0.1797086 0.25671327
0.03061223 0.09484488 0.11350435 -0.24508254 0.18788663 0.07366966 0.40698683 -0.071099594
-0.38504654 -0.113771655 -0.21624519 -0.023267338 -0.111094125 0.31909248 -0.10375225 -0.25275484
0.19609706 -0.33648634 -0.2050458 -0.13640869 -0.363908 -0.21662168 -0.35340995 0.036970228
0.04397638 -0.41886005 -0.10125814 0.045750797 -0.11391726 -0.1629489 0.13755494 -0.12013739
0.09704989 0.117111206 0.04400562 0.36299437 -0.010668963 0.24028538 -0.29581845 -0.1982583
0.11934555 -0.09376954 0.026785439 -0.021127453 -0.38753036 -0.23685247 -0.4592458 -0.42151758
-0.54371935 -0.85360336 0.5868539 0.38638508 0.4539846 -0.6553821 0.23858212 0.6936562
-0.11452947 -0.1527126 -0.30348358 -0.36481228 0.42600313 -0.052714605 0.18891314 -0.066271335
-0.027277112 -0.22274369 -0.36763605 0.050693415 -0.44871762 -0.4507051 0.2810645 0.11154731
-0.08587146 0.34407192 -0.06556426 0.32669842 0.0842652 -0.3446524 0.044252157 0.16380388
-0.06465691 0.26369745 -0.28604746 0.08535051 0.36128312 -0.22917986 0.027330969 0.12541406
0.32157373 -0.008764148 0.060086787 0.36579633 0.2500173 -0.09248519 -0.11325574 -0.17052071
0.23990875 0.34663182 -0.0154019 0.16283458 -0.29364237 0.14875549 -0.112228185 0.31531852
-0.29839635 -0.084935635 -0.28282955 -0.27074653 0.22301605 0.66174036 0.038747508 -0.076950155
0.008077414 -0.76503074 0.55419743 -0.10213778 -0.493109 -0.15384203 0.3595792 -0.15310785
0.2572978 -0.4032554 -0.04787332 0.26337802 0.14237893 0.12839377 -0.119344026 0.2897535
0.29478806 -0.188323 -0.16471381 0.23524672 -0.13375983 0.33619797 0.25728178 -0.21877685
-0.18462339 -0.23633753 0.46546876 -0.22696054 0.12231752 -0.118036844 0.105474114 -0.123432934
-0.2030841 -0.3609268 -0.16499482 0.21017575 0.09047565 0.17082441 0.2252379 0.12558806

linear1.bias f4 [200]
00000000: 7df4 873e 5a07 2d3e 0ce5 a4bd 78d0 b9be
00000010: 05e9 23bd 3431 623d 145a 4fbe bcea 483d
00000020: 55c3 5b3e 1726 58be f87f 6b3e c83a c8be
00000030: c1e4 113d 5a63 253e cb40 943c a59c 053e
00000040: e525 9e3e 3e13 8ebe eaab a23e d30a 343e
00000050: 680f d43e 75ea 05bc 4cb5 45be 3cf3 cd3d
00000060: 83bf 083e 875d 28ba e4c4 cf3d d73c 9c3e
00000070: acdf 4e3e 266b de3e 388c 60be 5c9a 803e
00000080: 3c4c 3dbe 2d6a 94be 1402 c5be 4c0d a33d
00000090: 481c 23be c87d bdbe 3dc4 b9be aa58 c3be
000000a0: dd16 463d 08c4 89be f490 9dbe 38ea b33e
000000b0: e4f9 683e 9a84 b23e f10b 76be 29e9 24be
000000c0: 1a7e 133e 2be7 bf3d a939 afbe 9e6e 4dbd
000000d0: a555 b1be 48c4 ccbe 5e60 9b3e 7236 87be
000000e0: e3f6 40be 3007 6cbe c0bf 283d e065 8bbb
000000f0: 58e9 a93e 6542 833e 8358 a5be 0ee7 913e
00000100: c364 913e 4a21 af3e b6f1 ef3d 75d3 4e3d
00000110: cfce 70be ff67 f93b cf7f b1be a815 d93d
00000120: 3ae4 75be 40eb 45bd bb2d 963e d655 a33e
00000130: 68fb ccbe f7f4 8e3e 2086 71be e874 aabe
00000140: badf 183e 2184 cebc e0b9 1cbd af61 77be
00000150: a896 69be 6234 60be e3a1 63be 213f 23be
00000160: 6fac 1c3e d33a 69be 51b9 2abe 21d1 26bd
00000170: da80 37be 30dd e03d ccf5 703e 25de fabd
00000180: 252f 9bbc c94b 5dbe dad9 89be 1873 7cbd
00000190: b2f7 5d3d 03c5 a2be a261 c0be 00c4 dbbb
000001a0: 0590 5e3e baca acbe 850a 59be 53df 0f3e
000001b0: b35a 2cbe ad5b e7bd 7d2f 093e f30f a6bd
000001c0: e815 94be 308f d33e 5fb0 883d 58f6 31be
000001d0: 5be6 963e 88b5 223e 5a4f f63d 124a 5d3e
000001e0: fc38 7f3d ea78 07be 7a45 9cbe 5006 033e
000001f0: 2337 8b3e 5c45 d63e 00b2 823b 1290 bfbe
00000200: 43c0 6cbe ebd5 adbe 5973 953e 2b59 983e
00000210: 5337 843e 28d9 f43a b3f0 b2be f1dd 0d3e
00000220: 99fe 5a3d 1492 f5bd 6649 a13e 65db cdbe
00000230: a8d4 bfbe 5f8d a93e 4f4e c1be cf4c df3b
00000240: 2abe 663e 2d48 97be f085 723e 6a29 213e
00000250: 894e ccbe e00c c3bc 0021 ad3b b902 9bbe
00000260: 2bce 4cbe 206e 2abc 7b2c 3f3e 1acf 58be
00000270: 42f0 babe 88b5 473e 6f23 d7bc c001 cebd
00000280: f1ec 6c3e 9838 0d3d 9e9f 893e 9d01 99be
00000290: 8f27 2c3e c15e 633e 3a65 ab3d 4ce3 c0be
000002a0: 0f66 a43e f21e 3a3c d814 b53e a0bf a7be
000002b0: b74a 4c3e c1db 9a3e 6ddf a4be 8c7d 893e
000002c0: efe5 44be 0e0c bc3e e96b abbd c414 af3e
000002d0: 8483 fabc c429 e8bd 3c02 883e cba5 c23b
000002e0: 1663 a5be 695f 46be dd7b a63e 0c01 c6bd
000002f0: 37e5 a33e 7c44 5fbe e4e1 99bd a58d 593e
00000300: 8983 993e 52e4 313e 0f5e 743e 56ba 053e
00000310: 36ce a13e 5f08 5c3e 1623 d8bd 685e 94be
0.26553717 0.16897336 -0.080515 -0.36291862 -0.040017147 0.055222705 -0.20249206 0.049051985
0.21461232 -0.2110828 0.22998035 -0.39107347 0.035618547 0.16151181 0.018097302 0.13048036
0.30888286 -0.27749056 0.31771785 0.17582254 0.41418004 -0.008173575 -0.1930744 0.10056159
0.13354306 -0.0006422628 0.10144976 0.30515167 0.20202512 0.43441123 -0.21928489 0.25117767
-0.18486112 -0.28987256 -0.38478148 0.079615206 -0.15928757 -0.37010026 -0.3628253 -0.38153583
0.048361648 -0.26907372 -0.30774653 0.35139632 0.22751576 0.34866792 -0.24027993 -0.16104569
0.14403573 0.09370264 -0.3422368 -0.05015432 -0.34635654 -0.399935 0.3034696 -0.26408726
-0.1884418 -0.23049617 0.041198492 -0.004254088 0.3318584 0.25636593 -0.32294092 0.28496593
0.28397188 0.34205085 0.117160246 0.05049463 -0.23516391 0.0076112743 -0.34667823 0.10599834
-0.24012843 -0.048320055 0.29331765 0.31901425 -0.40035558 0.27921268 -0.23586321 -0.33292317
0.14929095 -0.025209488 -0.0382632 -0.24158357 -0.22811377 -0.21894982 -0.22229724 -0.1594205
0.15300153 -0.22776346 -0.16672255 -0.040726785 -0.17920247 0.10979688 0.23531264 -0.12249402
-0.018943379 -0.21610941 -0.2692402 -0.0616332 0.0541913 -0.31790933 -0.37574488 -0.0067067146
0.21734627 -0.33748418 -0.21195419 0.14050035 -0.16831474 -0.11296783 0.13397022 -0.08108511
-0.28922963 0.4132018 0.06674265 -0.17379129 0.29472622 0.15889561 0.12026854 0.21610287
0.062310204 -0.13229719 -0.30521756 0.12795377 0.27190503 0.41849792 0.0039885044 -0.37414604
-0.23120217 -0.3395227 0.29189566 0.2975553 0.2582346 0.001868044 -0.34949264 0.13854195
0.05346546 -0.11990753 0.3150131 -0.40206447 -0.3746693 0.3311567 -0.37755057 0.006814576
0.2253348 -0.29547253 0.23683906 0.15738454 -0.39903668 -0.02380985 0.005283475 -0.30275515
-0.20000522 -0.010402232 0.18669312 -0.21172753 -0.36511427 0.19502842 -0.026262013 -0.100589275
0.23137261 0.0344778 0.2687959 -0.29884043 0.16811965 0.22204114 0.08368917 -0.37673414
0.32109115 0.011359917 0.35367465 -0.32763386 0.19950376 0.30245784 -0.3220171 0.26853597
-0.19228338 0.36727947 -0.083701916 0.3419553 -0.03058029 -0.11336091 0.26564205 0.005940174
-0.3230216 -0.19372334 0.32516375 -0.096681684 0.32010815 -0.21803468 -0.07513788 0.2124544
0.29983166 0.17372254 0.23864006 0.13059363 0.3160264 0.21487568 -0.10553567 -0.28978276

linear2.weight f4 [200, 200]
00000000: 5a40 9fbd 0e08 8abc 588a 9abc 60fe 0b3d
00000010: 8988 903b 6417 a2bd a075 133c 184a 9d3c
00000020: 23ca 91bd 0874 36bd b764 19bd 2a44 0fbd
00000030: 254c 3d3d 0ba0 d73b 4018 83bd 007b 9abc
00000040: 9c6b 90bd 3f2a 813d 47e0 073d 21b0 f63b
00000050: 259e 8abd 8d0d ea3c b021 0d3d ae30 81bc
00000060: 68d7 023d a5de 6cbd b201 42bd 61cf c9bc
00000070: 0dd7 3cbd 0dab 8cbd 0cee 4abc 66fa 7ebd
00000080: 3aa0 5c3d e8e0 e2bc 0038 eb3b 9330 24bd
00000090: 2cdb 7cbd 8042 61bb 521d 593d a09f 943b
000000a0: b645 4b3b 128b 89bd 7840 213c 016a a5bc
000000b0: 8bba 4fbd 36c7 a9ba 583e 93bc 5a18 6cbd
000000c0: fa85 1bbd 793e 3bbd 86be 473d 1ca3 1a3d
000000d0: 7fc5 8fbd 504e 43bd e309 a2bd d256 68bd
000000e0: aa66 babc 4420 dbbc 7ecc 11bd 02d3 493d
000000f0: 5958 a5bd ec47 1c3d 87de 84bd d0a6 95bd
00000100: a9d5 573c 6580 0c3d 15e3 4a3d 2b9a 88bd
00000110: 8294 033d 1c6e d73c beda 88bd b5b1 8f3d
00000120: 6edd 6ebd 6650 343d a6e5 5dbd eaa2 abbb
00000130: dd6c 8c3d d82c 2c3d 59bb 03bd 9035 01bd
00000140: 28b4 bd3c 986c 1d3c 0005 a43c 9021 1bbc
00000150: 9fcf 0fbd 5661 6e3d 1be3 8bbd 7795 893d
00000160: 9f83 2d3d 08b4 723c 00d3 463d 2ad9 423d
00000170: 00c7 303b 45d5 01bd 320c cb3b cc5e ffbc
00000180: 966e 273d ea0d 49bd 49a4 8d3d 8035 0b3d
00000190: 69f7 24bb 1f5e 83bd 6646 72bd e420 84bd
000001a0: 662c 303d 7c5c abbc e890 53bd e472 5a3d
000001b0: e007 443d b07e 2f3d 90e1 9abd c6a7 4cbd
000001c0: be46 8abc 3490 7d3c 2d6a 5cbd 205e 83bd
000001d0: c226 95bb e2c4 1bbd f032 183c c4fa febc
000001e0: 77c3 f93c 8511 5ebd 60df 4ebd db03 98bd
000001f0: 0fbb 8d3d 2742 3b3d 58b3 2bbc 7269 c4bc
00000200: 4622 723d d810 49bd 36bb 4d3c 2a1d 293d
00000210: 2190 f5bc c078 d2ba a844 bb3c bc6c 96bc
00000220: 7221 78bd 787c 3e3c 02d9 4dbd d80d ea3c
00000230: dbbb 873d 0f36 043d 0232 3a3d e84c 273d
00000240: a9ee 95bd f265 303d 2d68 3f3d f105 2ebd
00000250: 4ca7 4bbd ced6 eabc f0a2 513d 2051 ac3b
00000260: 24d2 12bd a0a2 893b c2aa d7bc 647c f93c
00000270: 1279 95bc 9763 5abd b854 5c3d daad 183d
00000280: 08f4 9bbd 13da 8a3d 6f96 f8bb 22a8 6bbd
00000290: 12f4 8ebd aff3 66bd 9922 3ebd c891 cd3c
000002a0: 0515 5ebd f93e f9bc 0261 c1bc 2ca0 d7bc
000002b0: 472d 8abd 971c 813c c484 ab3c 8c0e 063c
000002c0: 08d2 b13c 6e4e 213d b24d cdbc 9bac 41bc
000002d0: ad44 463c 632a 48bd f283 03bd 596e 173d
000002e0: 4ae0 34bd f39a 21bd 46a8 0a3d f871 493c
000002f0: bc1c ac3a 10d1 5c3d a037 143c ff46 0dbc
00000300: 56b6 043d fb3e 2abd b2ba 22bc 4a0b f138
00000310: 3f0b 223d f74c 3e3d 9054 593d 3890 5a3d
00000320: 6103 153d a07a a4bd 181b 933c a878 8cbc
00000330: 7c84 d5bc cf12 bfbc 8491 bf3c 29ec 623d
00000340: 466a ddbb b079 dcbc 87a0 343c b032 063d
00000350: c5e7 523b 2c67 3fbd 34bc adbd 2490 a83c
00000360: cd3a 013d e475 a63c 04e3 7e3d ecb5 3cbd
00000370: 42cf 59bd 64f8 6e3c 1604 7fbd 05eb 35bd
00000380: ba4a 353a 79db 04bd c59f ed3c 3f5f 963b
00000390: 4c73 5f3d 6901 2b3d 52ce 7c3d 6519 48bd
000003a0: 20e0 5a3c a071 943c 7a18 99bc d0e0 74b7
000003b0: 927b 533d a07f 393b df23 60bd c41f 8c3c
000003c0: 823f 383d 543c c3bc 40d1 0fbd b622 063c
000003d0: a5f1 22bd a9d1 9d3d a8b3 68bc b671 5c3d
000003e0: a0f8 81be e4f2 5abd f6be e8bc c728 9e3e
000003f0: 3c21 0d3d 284b 57bc 9de5 e9bc e063 19bc
-0.07775946 -0.016849544 -0.018864796 0.034178138 0.0044108075 -0.07914618 0.009000212 0.01920037
-0.07118633 -0.04454425 -0.037449565 -0.034977116 0.046215195 0.006580358 -0.0640111 -0.01885748
-0.07051775 0.06306886 0.033172872 0.0075283204 -0.06768445 0.028570915 0.034455955 -0.015770283
0.03194371 -0.057829518 -0.047364898 -0.024635019 -0.046103526 -0.06868563 -0.012385856 -0.062250517
0.05386374 -0.027695134 0.0071783066 -0.040085386 -0.061732456 -0.0034371912 0.053006478 0.0045356303
0.0031016893 -0.06715979 0.009842031 -0.020192148 -0.05071501 -0.0012953046 -0.017974064 -0.05764041
-0.037969567 -0.045713875 0.04876568 0.03775321 -0.07020091 -0.047682106 -0.07912042 -0.056723423
-0.022754032 -0.026748784 -0.03559541 0.0492735 -0.080734916 0.038154528 -0.06487756 -0.073072076
0.013173499 0.034302134 0.04953297 -0.0667003 0.03212405 0.026297621 -0.06682347 0.07016317
-0.05831664 0.044021986 -0.054174088 -0.0052379267 0.068567015 0.042034954 -0.03216109 -0.03154522
0.023157194 0.00960841 0.020021915 -0.009468451 -0.035110112 0.058198296 -0.06830426 0.06717961
0.04236185 0.014813431 0.04854107 0.047570385 0.0026974082 -0.03169753 0.006196522 -0.031173132
0.040876947 -0.049085535 0.069161005 0.03398657 -0.0025171882 -0.064144365 -0.05914917 -0.06451586
0.04301109 -0.020918123 -0.051651865 0.053332224 0.047859073 0.042845428 -0.07562554 -0.04996469
-0.016879436 0.015476275 -0.053812195 -0.06414437 -0.0045517394 -0.03802956 0.009289488 -0.031125434
0.030488713 -0.054215927 -0.050505996 -0.0742261 0.06920444 0.045717385 -0.010479771 -0.023976061
0.059114717 -0.04908833 0.012556842 0.04128758 -0.029975953 -0.0016057715 0.022859886 -0.018362395
-0.06057877 0.011626355 -0.050255783 0.028571054 0.066276275 0.032278117 0.045457847 0.040844828
-0.073209114 0.043065973 0.04673021 -0.042486135 -0.049720094 -0.02866688 0.05118078 0.0052586943
-0.035844937 0.0042002946 -0.02632654 0.030454822 -0.018246207 -0.053317633 0.05379173 0.037275173
-0.07614905 0.067798756 -0.0075862925 -0.05753339 -0.069801465 -0.05638474 -0.046419714 0.025093928
-0.054219265 -0.030425536 -0.023605827 -0.026321493 -0.06746917 0.015760703 0.020937331 0.008182179
0.021706596 0.039381437 -0.025061462 -0.0118209375 0.0121013345 -0.048868548 -0.032108255 0.03697047
-0.04415921 -0.03945441 0.033851884 0.012295239 0.0013131122 0.053910315 0.009046465 -0.008622884
0.03240045 -0.04156397 -0.009932207 0.00011493878 0.039561506 0.04646012 0.05305916 0.053360194
0.036380176 -0.08031201 0.017957255 -0.017147377 -0.02606415 -0.023324398 0.023384817 0.055401
-0.0067570535 -0.026913494 0.011024601 0.032763183 0.0032181602 -0.04672925 -0.084831625 0.020576544
0.031550217 0.020319887 0.062228218 -0.04607193 -0.053176172 0.014585588 -0.062259756 -0.044413585
0.0006915737 -0.032435868 0.029006848 0.004588991 0.054553315 0.04174939 0.0617202 -0.048852343
0.0133591 0.018120587 -0.01868843 -1.4595877e-05 0.051631518 0.002830483 -0.05472171 0.01710499
0.04498244 -0.023832478 -0.035111666 0.008186987 -0.03978123 0.07706005 -0.01420299 0.05381938
-0.25384998 -0.053454295 -0.02841137 0.30890486 0.034455523 -0.013140477 -0.028551871 -0.009362191

linear2.bias f4 [200]
00000000: c5ed af3a 46d3 f8ba bd5b e63c 8713 ef3b
00000010: 7449 0835 eca7 e63a 9844 0e3d 64bf 123d
00000020: 9b48 d3bc 47fa 823a 78ed c13c 4dbe 82bc
00000030: dbed 03bd 50de 71bd 112b 9c3d e771 23bd
00000040: bc03 5b3d da98 7ebc 9ed0 96bc 4aaf 49bd
00000050: 7314 21bd 23f1 933b def6 b9bc d9c2 423d
00000060: cc6b a5bc 6d7d 28bb 9c48 9abd 8bba 16bd
00000070: 003c f739 c42f ceb9 48d1 383d ccf0 aebc
00000080: 5ffe 18bd 10d3 223c 22fb 693d 54cb 023c
00000090: df82 8a3c 569a 27bd 9508 88bd 7993 0f3c
000000a0: e222 b13c a2e7 f0bc 2ce8 a7bc 456a 1c3d
000000b0: fcd9 2d3d 7650 77bd 6022 413b e964 cdbc
000000c0: 7492 a53b a077 5dbd 2c34 703d f944 23bd
000000d0: d2ff 88bd 445f 16bd a526 7abb 1fe1 1ebd
000000e0: 4b12 9abc d444 2b3d f0fa 5d3c 3276 58bd
000000f0: a6f7 88bd 6132 febc 8065 1abc 626c 733b
00000100: 1cb2 64bc c948 ad3c 8920 493d 60da 2d3d
00000110: a28b 4ebd ff73 6abd bcb9 c63c 9488 1abd
00000120: b213 743d 961c 493d b96f 653c 02dc 57bd
00000130: ad2d 213d ba5f e3bc a0d6 babd effd 6f3a
00000140: 2942 95bc cc59 f5bb 4e62 743d 8efc a3bd
00000150: d4f6 64bd 0ed4 73bd 08e8 afbd 0973 81bd
00000160: a83a 82bc 4931 1fbd d1fb da3c 009c f53b
00000170: d2d7 21bd d3f2 8dbd 2499 673b a22c 46bc
00000180: 5275 96bb ce8f 9fbd 0156 73bd b1c9 52bd
00000190: a1aa 9b3c fe3b 833d cd31 123d 8f51 6abd
000001a0: 3faf 1fbd 0024 dbbb 7ad9 093d 1cd8 89bc
000001b0: 7960 cf3c 43c9 133d 5bbb 4ebd c0dd 2f3b
000001c0: f67d 54bd 72f5 78bd f3be 8abd 1c14 3abd
000001d0: 7ccc ff3c 0080 6f3a 4eed 96bc ff06 eb3c
000001e0: 1370 083d 537f 1bbd c07f e0bc ecec 97bc
000001f0: 317b 79bd 9bdf c03b 1a3a 8d3c 628e 3bbd
00000200: ecda a639 bd15 61bd b345 283c d521 f63b
00000210: a53f d2bc 4abe 48bd 326c 66bd ad18 2b3d
00000220: a2fd 843c d6ac 533d 200e 383d 824a 76bc
00000230: cf0f 81bd 2e28 bbbc 3072 56bb fa08 6d3d
00000240: 538d 18bd f180 203d c440 a53c 4095 aaba
00000250: 237f 093d 669e 7c3d 512f f5bb a405 a3bd
00000260: 702d 12bd a888 833c 7534 8dbd 8a72 23ba
00000270: f213 3abd 5ce2 48bd b52f fcbc 35b0 e33c
00000280: 74b0 5fbd f032 67bd fd93 98bd 3f31 99bd
00000290: 121f b13c 7f7d 6dbd f997 a3bd b893 39bc
000002a0: 7f51 3dbc b932 7bbb 9911 efbc adaa ef3c
000002b0: fca3 693c 9e1a be3c 37a5 c8bd 65ef 28bd
000002c0: e611 88bd edd2 053d 4945 6e3d 3e2c babc
000002d0: e29e 9cbd a828 e13b 5c76 ddbc da77 9dbd
000002e0: 35e0 97bb 718e 9a3a a3d7 8ebd ec13 51bd
000002f0: b2b2 70bd d3b3 1bbd 1a94 06bd 92a7 903d
00000300: 2695 28bd 9b9d 673d 23f3 0f3d 6665 403b
00000310: ebf0 6cbb 66dd eebc 6e3e 58bd 37f3 96bd
0.0013422301 -0.0018983863 0.028119916 0.007296029 5.0770836e-07 0.0017597652 0.034733385 0.035827056
-0.025791457 0.0009992801 0.023672804 -0.015959883 -0.03220926 -0.059049904 0.07625402 -0.039903548
0.05347036 -0.015539372 -0.018410023 -0.049239434 -0.039326143 0.0045148297 -0.022700723 0.047549102
-0.020193003 -0.0025709525 -0.075333804 -0.036798995 0.00047156215 -0.0003932697 0.04512146 -0.021355055
-0.037351962 0.0099380165 0.057124265 0.0079830475 0.016908107 -0.04091867 -0.06642262 0.008763188
0.021623079 -0.029407326 -0.02049645 0.038187284 0.042444214 -0.060379468 0.0029469952 -0.025072532
0.005052859 -0.05406916 0.058643505 -0.0398607 -0.06689419 -0.036711946 -0.0038170007 -0.03878891
-0.01880755 0.041813686 0.013548598 -0.052847095 -0.0668786 -0.031029882 -0.009423614 0.0037143459
-0.01395848 0.02115287 0.049103294 0.042444587 -0.050426133 -0.05723953 0.024258487 -0.037727907
0.059589095 0.049099527 0.014003688 -0.05270005 0.0393502 -0.027755607 -0.09122968 0.00091549655
-0.018220024 -0.0074875113 0.059664063 -0.08007155 -0.055899456 -0.059528403 -0.08589178 -0.06320769
-0.01589711 -0.03886536 0.026731404 0.0074954033 -0.039512463 -0.06931081 0.0035339082 -0.012095602
-0.0045916224 -0.077911004 -0.05940819 -0.05146188 0.01900226 0.06407927 0.035692025 -0.057206687
-0.038985487 -0.006687641 0.033654667 -0.016826682 0.025314556 0.03608061 -0.050471645 0.0026835054
-0.05187794 -0.06078095 -0.06774702 -0.045429334 0.031225435 0.00091362 -0.018423703 0.02868986
0.033310007 -0.037963223 -0.027404666 -0.01854559 -0.0609085 0.005886031 0.017239619 -0.045790084
0.00031825097 -0.054952372 0.010270524 0.0075113573 -0.025665114 -0.0490096 -0.056255527 0.04177158
0.016234223 0.0516785 0.044935346 -0.0150324125 -0.063018434 -0.022846308 -0.003272187 0.05786989
-0.037244152 0.039185468 0.020172484 -0.0013014451 0.033568513 0.061674498 -0.007482447 -0.0796006
-0.035687864 0.016056374 -0.06894771 -0.0006235024 -0.045429178 -0.049043998 -0.030784467 0.027793983
-0.05461164 -0.056445062 -0.074501015 -0.07480096 0.02162126 -0.05798101 -0.07987971 -0.011326723
-0.011555075 -0.0038329794 -0.029183196 0.02925619 0.014260288 0.023206051 -0.09797137 -0.04124393
-0.06644039 0.032671858 0.058171544 -0.022726174 -0.07647492 0.0068713017 -0.027033977 -0.076888755
-0.004634882 0.0011791718 -0.06974723 -0.05104439 -0.058764167 -0.03801329 -0.032856084 0.070632115
-0.041157864 0.05654679 0.035143983 0.0029357313 -0.003615434 -0.029158305 -0.052793913 -0.07370608

linear_mean.weight f4 [4, 200]
00000000: c5ef 123c 2ebb 17bd da22 903d 44db 01bd
00000010: f82f 873d 2a9a 963d a5a4 0c3e a136 b8bc
00000020: 9c4f 033d 3925 37bd 8fbb 913d fa70 0cbd
00000030: 255d 063e 1e9a 40bd 9983 62bc a13e 003d
00000040: b19d e8bc 12c0 033d a8f3 6d3c c06e 85ba
00000050: 5ccf f53b 43c7 32bd fac1 143d 4aa5 b5be
00000060: 0e4b 943e 6670 d93d 63cd 3d3d 8a1a 5c3d
00000070: 2dc0 823d 03dd 1e3a c4c4 20be 26d1 eb3d
00000080: 2e0a 733d 35f6 88bd c210 40bd bfaf 303b
00000090: 1e17 883d 3bf2 4bbd f08b ae3c 573b 643e
000000a0: 21d5 ad3d 5c1c c9bc 3826 ea3b acde 8abd
000000b0: 88ab 68bc 987d ad3c 784a 44bd adc2 303d
000000c0: 40f1 463c 3220 c73c db03 25bd 2d9b af3d
000000d0: 2c29 dabc c861 f53c 34c3 9c3d 4d89 863d
000000e0: d816 2dbe f83f 0f3d cf81 883d 80da 443d
000000f0: a0be 283c 9faa 063d 1398 20bd 16d7 a83d
00000100: 9031 85bd 6630 a0bc 44d2 2ebd 0c4c 9a3c
00000110: 4ea1 033e 643e 57bc 008b a33c 1bac 1cbd
00000120: 1423 1bbc 158d 263d 12ed 45bc afb2 5c3d
00000130: 6e28 8d3d c9fd 173d 1b01 b83c 134f 423d
00000140: 9f66 49bc aaae 56be f4d3 373e bf13 29bc
00000150: 140c 03bd 6790 3c3d 9da7 a6bc f641 3d3d
00000160: a076 3a3d e947 c83c 9754 02bd ee55 0d3d
00000170: e1c8 7e3d 3011 083d e99a 313d d06d 073e
00000180: 2d94 a1bb bead 2ebd c3d6 043c 6625 b5bc
00000190: 0314 e43d 69ff 6abd 0170 4bbc b9be 1bbd
000001a0: be2c 913c a02c f53b 6af7 27bc 8de2 6cbd
000001b0: 038c 3a3d 6f6f 52bb 8350 ca3d dd1b 813d
000001c0: 6677 773d 601c 4a3b cef6 80bd 805f 75bb
000001d0: 9743 ab3d 8871 343d 022e 28bd 288c 113e
000001e0: 38a5 7f3c 5165 f93d 4200 c33d 28bd 713d
000001f0: 07f8 2dbb 97e7 fabb c215 dabe 9f73 983a
00000200: 1f9a 4fbd cc2c 28bc b79c 0a3c 887c 09bf
00000210: 71fb 763b 2358 80bc 9ef7 b03d fa1f 7c3d
00000220: 67e5 c7bc 8a5f d63d 6317 19bd b758 fa3d
00000230: f5fd a63d 4d53 68bd d776 96ba 271a 853d
00000240: f0e0 953c 3366 8c3d 5e3b 1b3d 9bbb 82bd
00000250: 0dff 773c 7c0e 41bc 82f5 f1bc a37c 21bc
00000260: a297 323c 9137 b6bc a02d d43b 2f59 8ebd
00000270: 8c5f 71bd 5ad3 88bc 0244 fe3c ccec 37bd
00000280: 61da 8cbd 0157 c23b 3953 70bd b2b2 89bb
00000290: 5be5 a6bc ed31 e63e 88ca 63bb e422 de3c
000002a0: 60a7 743c 244d b23d 39cf ddbc 3034 6e3d
000002b0: 7eb4 a73b b37e 1cbc 7781 a0bd e6bb 74bd
000002c0: 50c6 853c b7ce 4d3d 9ee3 0cbd eb29 063e
000002d0: 0115 0f3d e6dc 763d 506b 25bc 4382 04be
000002e0: 3b6b 843c ef79 ac3e c26d 25bd b485 e33c
000002f0: 28d3 5d3d 26f3 043e 8659 083b 73cb ccbd
00000300: 90bc a13d 117d 1ebd 9603 debc 5a34 043d
00000310: dc7e aebd 1c44 63bc 5dae 4d3e 8ce3 79bd
00000320: c857 4ebd 7e99 3dbd d09e 883d 61e1 3d3d
00000330: 1ec4 84ba 0b06 4cbd 9e4e c639 5654 8abd
00000340: fd3c 10bd 746a 123d d181 28bd 4c2e 60bc
00000350: 75d3 c43d 047c d93c 51ee 703d 39e9 a43d
00000360: 038d 26bd cf81 5d3d c653 89bd 3653 1b3d
00000370: 9c29 813d 9eaf 15bd ebf3 2bbd a77f 34be
00000380: 7486 373e 0a0a 73bc 372b a43d d222 40bd
00000390: 5c46 6cbd 9a21 5abd 6864 163e dfff 27bd
000003a0: e81d 5b3c 684a 0f3c a246 90bd 4688 5cbd
000003b0: 6562 8d3c d87e 1cbd e864 303c 2964 933d
000003c0: 2d58 34bd 9e6c 5a3d 5a3a 3ebd a68c d3bd
000003d0: 8c33 18bd f09e f73c 2e16 b4bc 8f16 573c
000003e0: 9df4 a9bc 8da6 98bc 149c a13d 6c7b 423c
000003f0: 046b 5bbc 8592 72bd 9643 a6bc aece 2b3d
0.008968298 -0.037043743 0.070378974 -0.03170325 0.06600946 0.07353623 0.13734682 -0.022486987
0.032058343 -0.044713233 0.07115852 -0.03428743 0.1312147 -0.047021978 -0.013825321 0.031309728
-0.028395506 0.032165594 0.014523424 -0.0010180101 0.007501526 -0.043647062 0.036317803 -0.35477668
0.28963512 0.106171414 0.04633845 0.053736247 0.06384311 0.0006060155 -0.1570006 0.11514501
0.05933588 -0.06687585 -0.04689098 0.0026960222 0.06645034 -0.049791556 0.021306962 0.22288261
0.08487917 -0.024549656 0.0071456693 -0.067807525 -0.0142010525 0.021178052 -0.04792258 0.043154407
0.012142479 0.024307344 -0.04028688 0.08574519 -0.02663096 0.029953852 0.076544195 0.06569157
-0.16903245 0.034973115 0.06665384 0.04805994 0.010299355 0.03287756 -0.03920753 0.082441494
-0.06503594 -0.019554328 -0.042680994 0.01883509 0.12854502 -0.013137434 0.019963741 -0.03825007
-0.0094688125 0.04066189 -0.012080448 0.053881343 0.06892477 0.037107263 0.022461465 0.047438692
-0.012292533 -0.20965067 0.17951947 -0.010319649 -0.03199394 0.04603615 -0.020343596 0.046205483
0.045523286 0.024448352 -0.031818952 0.034505777 0.06220329 0.033219516 0.043360624 0.13225484
-0.004930994 -0.042646162 0.008107844 -0.02211256 0.111366294 -0.057372484 -0.0124168405 -0.038023684
0.01772153 0.0074821264 -0.010251859 -0.057833243 0.04554368 -0.0032109877 0.09878638 0.063041426
0.0604166 0.0030839667 -0.06297074 -0.0037440956 0.08362501 0.044053584 -0.0410595 0.14213622
0.015603356 0.12177528 0.095215335 0.059018284 -0.002654554 -0.007657002 -0.42594725 0.0011631137
-0.05068409 -0.010264587 0.008460215 -0.53705645 0.0037686492 -0.015667027 0.08640979 0.061553933
-0.02440138 0.104674414 -0.03737582 0.12223952 0.08153907 -0.056720067 -0.0011479509 0.06499129
0.018295735 0.068554305 0.037898414 -0.06383439 0.015136492 -0.0117832385 -0.029536013 -0.009856376
0.01090041 -0.022243293 0.0064751655 -0.06950604 -0.05892901 -0.016702343 0.031038288 -0.04490356
-0.0687759 0.005930782 -0.058673117 -0.0042022103 -0.020373037 0.44959965 -0.003475817 0.027116247
0.014932483 0.0870612 -0.02707635 0.05815524 0.005117952 -0.009551692 -0.078371935 -0.059749506
0.016329914 0.050245967 -0.03439676 0.13101928 0.03493214 0.06026926 -0.010096386 -0.12940316
0.016164413 0.33686778 -0.040387876 0.027773716 0.054156452 0.12983379 0.0020805313 -0.09999742
0.078972936 -0.03869349 -0.02710132 0.03227649 -0.0852029 -0.013871219 0.20086046 -0.06100802
-0.050376683 -0.04628896 0.06670916 0.046357516 -0.0010129248 -0.04981045 0.00037824077 -0.06754367
-0.035214413 0.035746053 -0.041139428 -0.013682913 0.09610645 0.026548393 0.058821026 0.08052296
-0.040661823 0.054078873 -0.06705432 0.037921153 0.063067645 -0.036544435 -0.041980665 -0.1762682
0.17922384 -0.0148339365 0.08016055 -0.046908207 -0.057684287 -0.0532547 0.1468674 -0.041015502
0.013373829 0.008745767 -0.07044722 -0.053840898 0.017258832 -0.038206905 0.010766245 0.071968384
-0.044029403 0.05332624 -0.046442367 -0.10329561 -0.037158534 0.030227154 -0.021983232 0.013127937
-0.020746524 -0.018634105 0.07891098 0.011870246 -0.013392214 -0.059221763 -0.0202959 0.041945152

linear_mean.bias f4 [4]
00000000: 5a0c f6bc 2383 63bd 22a7 513c 44ae c7bb
-0.030035187 -0.055544984 0.012796195 -0.006093772

linear_sigma.weight f4 [4, 200]
00000000: ac98 cdbb da8a e0bd 00dd e6bb 002f 00ba
00000010: a85d 28be cc1a fcbc c32f 86bd c728 02be
00000020: baba 88bd 80aa f7bc 2596 6ebc c0ee 01bc
00000030: 616e 23be f9af 923d cb44 edbe 975c 64be
00000040: 8dc9 5ebd 1fc7 44bd d37a 2abe a483 a4bd
00000050: e995 01be 6f18 55be 06b3 a1bc f31b 45be
00000060: 0caa 1abe 4eeb 6cbe bca6 183e 64df eebd
00000070: eade 44be 1c69 95bd b873 25bd 0efc d4bd
00000080: a832 43bd f4e5 febc 3cab 97bc 03fd 35bd
00000090: 90e8 4b3e 9339 823d 98ec 373c f8ea c23c
000000a0: 3e3e 0fbe 8492 6abc a03c 7fbb 6783 1abe
000000b0: 2813 4bba 3656 7bbc 3adf a2bc 08c1 373d
000000c0: a33f 863f 5d0b 0ebe d640 6a3d aa9f 8dbd
000000d0: 447a 383d 7464 ce3c c09f 3fbe 9417 71bd
000000e0: cac2 7cbd 883b 95bc 00a1 7eba d210 603e
000000f0: fac8 aabd 399f 72be 4961 3cbd 873a 33bd
00000100: 65c9 8cbd d2d0 39be cd7f 88be 6df4 a53d
00000110: 807a 85ba 916a e63d a842 323c 9e46 99bd
00000120: 8170 873d aa42 29bd 650c babd c1d1 32be
00000130: 40c1 143b afd8 acbe 962c 313d b8b0 34bd
00000140: 7ca6 07be 491a 3d3d e290 5cbd 2c2c 2e3d
00000150: fe1f 07bd d0b2 2bbc b058 8d3c 565b 54bd
00000160: 2f61 2cbe fa2e 303d cb6e eebe e019 63be
00000170: 74ab 98bc 4394 26be a69d 54be e1e0 d2bc
00000180: 4c58 b8bd 3b0c 513e c8b6 ffbc 3caf a13c
00000190: a644 d3bd aea9 7e3d 9853 cfbc ea11 8ebc
000001a0: cd02 a6bd 2c1c bf3c 5f45 82bd 2327 d1bd
000001b0: ad0b 83bd 6be5 84bd 9bd3 26be 8652 3b3d
000001c0: a051 733b 2eb1 17be 9bf0 283e 60d8 85bb
000001d0: b402 f53c 803b d8bc cff1 4a3e 40b9 bfbd
000001e0: 573e 96bd cd21 0d3f ca0e 4dbd a4a2 3abf
000001f0: 8812 b63e eb78 5bbe b738 8d3d 9884 0abd
00000200: bfed 893d 06d5 5dbd 37d3 75bb a22a 36be
00000210: 41dc afbd 11b0 153e b0a4 27bc cd0a 9c3d
00000220: 6a39 f7bc a254 3d3d 1233 20be 38f9 9abc
00000230: cf22 6dbd 6ce1 fa3a 9e3a 79bd 37ca 18bf
00000240: e173 34be 884d 1e3d 4541 2ebe 387f a6be
00000250: 40ca aeba c6e4 133d 0032 5d3b 40eb a9bc
00000260: 143e 42bd 92b7 753d 538a 3b3f 09ae c53c
00000270: 942a 503d 5966 1ebe 1a31 8bbd 02f4 d6bc
00000280: 8229 90bd 6121 2abd 203a fabd 7e79 133d
00000290: 431f 34be 2292 1bbd d9a2 0ebe 8641 14bd
000002a0: f95e efbd 4f6f a4bd 383f 57be 00dc 3c3c
000002b0: 6be6 47be 089b febd 60d7 e9bb 1113 1cbe
000002c0: b07f b9bb f045 1ebe a466 0bbf 7993 f1bd
000002d0: 6540 36bc 5896 8dbd 1030 993e 99f0 a2be
000002e0: e2b4 a6bc f4f9 f7bc 286d bd3d e087 903c
000002f0: c05f 14be e0a9 26bb 08e6 7f3c ab96 b2bd
00000300: e0b5 3bbe d77c 19be 86f7 12be 42aa 82be
00000310: 4e16 d0bd 0306 1fbe 8673 983f 3002 a53b
00000320: d79e dfbd 1f60 123e 409d fe3c 7876 38bd
00000330: 94c6 48bc 1439 80be 61bd 02bd 407b a3bd
00000340: 9e63 90bd 406b 583b 21d9 f1bd 00bb a7b9
00000350: 1cc2 d8be e7b3 90bc cf50 5e3d cd87 1cbe
00000360: 9754 1dbe 6986 46bd 41b6 c9bd 8c97 99bc
00000370: 65df d7bd 307e 32be 1115 74bd e44a 90bd
00000380: a6c2 59bd 944b 2b3f 2126 373e ef51 22be
00000390: 7569 0fbd 67e1 a6bd ea47 aabc 7325 19be
000003a0: 2214 31bd c0a6 8cba 0082 f23b a153 81bd
000003b0: f01f b53e c0de 513d aa8b 5f3d 9416 6cbd
000003c0: d725 65be 00b9 cfb9 6af0 88bd 1fd9 79bd
000003d0: ca4a 2cbe 4a50 4fbe 1a22 5e3d 9cb5 823c
000003e0: 341d eb3e 14b9 54bd 4001 fc3c 641f 43be
000003f0: 40ae 1e3c 2065 40bd cee1 0cbe 48c3 66bd
-0.0062743034 -0.10963984 -0.007045388 -0.0004889816 -0.16441977 -0.030774496 -0.065520786 -0.12710868
-0.0667624 -0.030232668 -0.014562164 -0.007930458 -0.15960075 0.0716247 -0.46341547 -0.22300945
-0.054391433 -0.04804146 -0.16648416 -0.08032921 -0.12654842 -0.20810102 -0.019738685 -0.19248943
-0.1510393 -0.23136637 0.14907354 -0.11663702 -0.1922566 -0.07295439 -0.04039356 -0.10399638
-0.04765573 -0.03111551 -0.018514268 -0.044430744 0.19912934 0.06358638 0.011225842 0.023793682
-0.13988587 -0.014317159 -0.0038946047 -0.15089189 -0.000774669 -0.0153403785 -0.019881833 0.044861823
1.048817 -0.13871522 0.05719074 -0.06915219 0.045038477 0.025194384 -0.18713284 -0.058860376
-0.061709203 -0.018216863 -0.0009713322 0.21881416 -0.083391145 -0.23693551 -0.045991216 -0.043756988
-0.068743505 -0.18146065 -0.26660004 0.08103261 -0.0010183603 0.11250795 0.01088015 -0.07484172
0.06613255 -0.04132334 -0.09084395 -0.17462827 0.0022698194 -0.33759066 0.04325541 -0.044113845
-0.13247102 0.046167646 -0.05384911 0.042522594 -0.032989495 -0.010479644 0.017254204 -0.051844917
-0.16833948 0.04301355 -0.46568903 -0.2217784 -0.018636443 -0.16267495 -0.20763263 -0.025741996
-0.09001216 0.20414822 -0.031215087 0.019736879 -0.10315828 0.062173538 -0.025308415 -0.017342526
-0.08106003 0.023328863 -0.06360888 -0.10212543 -0.06398711 -0.064890705 -0.16291659 0.045732997
0.003712751 -0.14813682 0.16498034 -0.004084632 0.029908516 -0.02639556 0.19818805 -0.093615055
-0.07336109 0.551297 -0.050062932 -0.7290442 0.35561013 -0.21432845 0.06895583 -0.033817858
0.067347996 -0.054158233 -0.0037509927 -0.177897 -0.08586932 0.14617945 -0.010232136 0.076192476
-0.030178744 0.04622329 -0.15644482 -0.018917665 -0.057894524 0.0019140667 -0.060846917 -0.59683555
-0.1762233 0.03864816 -0.17017086 -0.32518935 -0.0013335422 0.036106847 0.0033751726 -0.020742059
-0.047422484 0.05998952 0.7325794 0.024130838 0.050821856 -0.1546873 -0.06796475 -0.026239399
-0.07039167 -0.04153574 -0.12218118 0.036004536 -0.1759005 -0.03798116 -0.13929309 -0.0361953
-0.116880365 -0.08029043 -0.2102021 0.011527061 -0.19521491 -0.124319136 -0.0071362704 -0.15241648
-0.0056609735 -0.15456367 -0.5445349 -0.11795706 -0.011123751 -0.069134414 0.2991948 -0.31824186
-0.020349924 -0.030270554 0.092493355 0.017642915 -0.1448965 -0.0025430843 0.015618809 -0.08720144
-0.18331099 -0.14989029 -0.14352235 -0.2552052 -0.10160504 -0.15529637 1.1910255 0.005035661
-0.10918968 0.1429448 0.031080842 -0.045034856 -0.012254376 -0.25043547 -0.031918887 -0.079824924
-0.070502505 0.003302291 -0.11808992 -0.00031992048 -0.42335594 -0.01766391 0.054276284 -0.15286179
-0.153643 -0.048468027 -0.09849215 -0.018749021 -0.10540656 -0.17430949 -0.059590403 -0.07045534
-0.053164147 0.669122 0.17885639 -0.15851568 -0.03501268 -0.08148461 -0.020786244 -0.14955692
-0.04323209 -0.0010730848 0.007400751 -0.06314779 0.3537593 0.05123782 0.054576553 -0.05763872
-0.22377716 -0.00039619952 -0.0668648 -0.06099808 -0.16825405 -0.20245472 0.05423174 0.015955739
0.45920718 -0.051934317 0.030762315 -0.19054943 0.009685099 -0.04697144 -0.13758013 -0.05633858

linear_sigma.bias f4 [4]
00000000: dba9 35be ca19 1cbe 336e 33be 2308 b2bd
-0.17740576 -0.15244213 -0.17522506 -0.08692958
